…
        "colab": {
          "base_uri": "https://localhost:8080/"
        },
        "id": "lPFwHEhWqD-V",
        "outputId": "7ea13226-e505-4f8b-c8ac-6aef3c28f66d"
      },
      "outputs": [
        {
          "output_type": "stream",
          "name": "stdout",
          "text": [
            "Model: \"sequential\"\n",
            "_________________________________________________________________\n",
            " Layer (type)                Output Shape              Param #   \n",
            "=================================================================\n",
            " conv2d (Conv2D)             (None, 32, 32, 32)        896       \n",
            "                                                                 \n",
            " conv2d_1 (Conv2D)           (None, 32, 32, 32)        9248      \n",
            "                                                                 \n",
            " max_pooling2d (MaxPooling2  (None, 16, 16, 32)        0         \n",
            " D)                                                              \n",
            "                                                                 \n",
            " dropout (Dropout)           (None, 16, 16, 32)        0         \n",
            "                                                                 \n",
            " batch_normalization (Batch  (None, 16, 16, 32)        128       \n",
            " Normalization)                                                  \n",
            "                                                                 \n",
            " conv2d_2 (Conv2D)           (None, 16, 16, 64)        18496     \n",
            "                                                                 \n",
            " conv2d_3 (Conv2D)           (None, 16, 16, 64)        36928     \n",
            "                                                                 \n",
            " max_pooling2d_1 (MaxPoolin  (None, 8, 8, 64)          0         \n",
            " g2D)                                                            \n",
            "                                                                 \n",
            " dropout_1 (Dropout)         (None, 8, 8, 64)          0         \n",
            "                                                                 \n",
            " flatten (Flatten)           (None, 4096)              0         \n",
            "                                                                 \n",
            " dense (Dense)               (None, 10)                40970     \n",
            "                                                                 \n",
            "=================================================================\n",
            "Total params: 106666 (416.66 KB)\n",
            "Trainable params: 106602 (416.41 KB)\n",
            "Non-trainable params: 64 (256.00 Byte)\n",
            "_________________________________________________________________\n"
…
